Models/tag_classifier.pth (torch, 465294 bytes, 20 tensors)

fc1.weight f4 [256, 49]
0	0xbebdee7c	-0.37096012
1	0xbebf59fa	-0.37373334
2	0x3ec2e9fb	0.38069138
3	0x3d15e865	0.03659858
4	0x3ed763b8	0.42068267
5	0x3d08ebb1	0.033427898
6	0xbe81f579	-0.25382593
7	0xbe1fb568	-0.15596545
8	0xbf1c1037	-0.6096224
9	0xbd9510bd	-0.07278583
10	0xbe2a5db3	-0.16637306
11	0xbe2abd4a	-0.1667377
12	0xbd1658af	-0.03670567
13	0xbc7741cc	-0.015091371
14	0xbf532437	-0.82477134
15	0xbb40d4e3	-0.0029423765
16	0xbcb5ce96	-0.022193234
17	0xbcb89e24	-0.022536345
18	0xbdee8f0c	-0.11648378
19	0xbebe8807	-0.37213156
20	0xbcd501ef	-0.026001899
21	0x3dde9f2f	0.108702056
22	0x3d8556e3	0.06510713
23	0x3e81ccf1	0.2535167
24	0x3da2794d	0.079332925
25	0xbed1a21a	-0.40943986
26	0xbd5a01d5	-0.053224403
27	0xbf03f978	-0.51552534
28	0x3d856bbb	0.065146886
29	0xbc4dcadf	-0.012560575
30	0xbefdb1a2	-0.49549586
31	0xbebe62e3	-0.3718482
32	0xbdb85809	-0.090011664
33	0xbdc058da	-0.09391947
34	0x3e9907c9	0.29888752
35	0xbe38f61a	-0.1806263
36	0x3e543b30	0.20725703
37	0x3c181b6d	0.009283883
38	0xbc77a6ee	-0.015115483
39	0x3ce61dd7	0.0280904
40	0x3d766445	0.06015422
41	0x3e6ab56c	0.2292077
42	0x3d5afc72	0.053463407
43	0xbe0ce5a1	-0.13759471
44	0xbd249e18	-0.040189832
45	0x3c5f652a	0.013634959
46	0x3ced2547	0.02894844
47	0xbd8aedec	-0.06783661
48	0xbe51cac5	-0.20487507
49	0x3d9c0def	0.07619845
50	0xbd6c8127	-0.057740357
51	0x3d1449df	0.03620326
52	0xbdba3e99	-0.09093971
53	0x3e8e66e6	0.2781288
54	0x3d2b4922	0.04181779
55	0x3defbb1a	0.11705609
56	0xbe540c73	-0.20707874
57	0x3e8a7e7b	0.27049622
58	0xbd03005c	-0.031982765
59	0x3dfec164	0.1243923
60	0xbdbc36ab	-0.091901146
61	0x3ea57afb	0.3232039
62	0x3e96139c	0.29311836
63	0x3e6bd5fb	0.23030846
64	0x3dbd04ef	0.09229457
65	0x3cd706e9	0.026248412
66	0x3ea9e920	0.33185673
67	0xbdb758df	-0.08952498
68	0x3eee30a1	0.46521476
69	0x3e662415	0.22474702
70	0xbece0867	-0.40240785
71	0xbdc8eaab	-0.09810384
72	0x3e2e490d	0.17020054
73	0x3e1d680b	0.1537172
74	0x3d502bb5	0.050822932
75	0x3d9c9a32	0.07646598
76	0xbe0f3187	-0.13983737
77	0x3e2aba1e	0.1667256
78	0xbec2a3c2	-0.38015562
79	0x3c7d583a	0.015462929
80	0x3ce861d7	0.028366966
81	0x3d1176dc	0.035513744
82	0xbe54b92d	-0.20773764
83	0x3ebabaea	0.3647073
84	0xbca77701	-0.020442488
85	0x3d9acc6e	0.07558523
86	0x3d04d56b	0.032430094
87	0x3dd704e8	0.10498983
88	0xbdc03804	-0.09385684
89	0xbd7c5913	-0.061608385
90	0xbebad7ac	-0.3649267
91	0x3d69c77c	0.05707501
92	0xbdd5903d	-0.10427902
93	0x3d6b265e	0.057409637
94	0x3d3c4be7	0.045970824
95	0xbe0dbf91	-0.13842608
96	0xbcf73328	-0.03017576
97	0xbd7b7486	-0.061390422
98	0x3cdb729e	0.026788052
99	0xbd73896a	-0.05945722
100	0xbcc1186f	-0.023571221
101	0x3e977ecf	0.29588935
102	0x3eb6785e	0.35638708
103	0x3b3c32af	0.0028716733
104	0xbcf307ff	-0.029666899
105	0x3e7dc5a4	0.24782425
106	0xbdb10bf5	-0.08644859
107	0xbe9f05f7	-0.31059238
108	0x3e1e8f1c	0.1548428
109	0xbc0891f9	-0.008335584
110	0x3e7dbd6f	0.24779294
111	0x3e9b4a04	0.30329907
112	0x3c1c8c96	0.009555003
113	0xbd25739a	-0.04039345
114	0x3d5607bc	0.05225347
115	0xbd07179e	-0.032981507
116	0xbe5a7f72	-0.21337679
117	0x3eee39fc	0.46528614
118	0x3c0fa0c4	0.008766357
119	0x3e094124	0.13403755
120	0xbe16207d	-0.14660831
121	0x3e042d41	0.12907888
122	0xbcc697b8	-0.024242267
123	0x3e8fea21	0.28108314
124	0xbd3bc7a9	-0.045844708
125	0xbc46048b	-0.012086044
126	0x3df97e27	0.12182265
127	0xbd9bd327	-0.076086335
128	0xbed9d58c	-0.42545736
129	0xbdada412	-0.084785596
130	0x3ea97bb4	0.3310219
131	0xbe2d369b	-0.16915362
132	0x3d563343	0.05229498
133	0xbe60adde	-0.21941325
134	0xbea81b84	-0.32833493
135	0xbe12c77e	-0.14333913
136	0x3da503ea	0.08057387
137	0xbe18ff12	-0.14941052
138	0x3e03a866	0.12857208
139	0xbe45e9fc	-0.19327539
140	0xbe64c842	-0.22342017
141	0xbd8207dd	-0.06349156
142	0x3ce8e071	0.028427335
143	0xbd317c62	-0.04333151
144	0x3c538508	0.012910135
145	0x3caa0469	0.020754056
146	0xbcc98cfc	-0.02460336
147	0x3eb25d24	0.34836686
148	0xbdbed2d0	-0.09317553
149	0xbd71b8a9	-0.059013996
150	0x3cfec8c6	0.031101596
151	0x3e2db225	0.16962488
152	0xbdaa63be	-0.083198056
153	0xbdaf25bd	-0.0855212
154	0x3d5fffa8	0.054687172
155	0x3e83840d	0.25686684
156	0xbe77db10	-0.2420466
157	0x3e81ba87	0.25337622
158	0xbe2fb033	-0.17157058
159	0x3eccf657	0.40031692
160	0x3e2bf314	0.16791946
161	0xbeab3161	-0.3343611
162	0xbf00addd	-0.50265294
163	0x3db8ef68	0.09030038
164	0x3d39bcb4	0.045345977
165	0x3d9d1ce4	0.07671526
166	0x3ea14b12	0.31502587
167	0xbde8e363	-0.113714956
168	0x3d54e715	0.05197819
169	0xbe1b850b	-0.1518747
170	0xbea9c921	-0.33161262
171	0x3c518e63	0.012790295
172	0xbeb8874a	-0.36040717
173	0xbbfa3b8b	-0.0076364926
174	0x3e11cda8	0.14238608
175	0xbd94e495	-0.07270161
176	0xbd6805d3	-0.05664618
177	0xbebc74ef	-0.36807963
178	0xbd319633	-0.04335613
179	0x3dfab5c0	0.12241697
180	0x3e0897a4	0.13339096
181	0x3decc704	0.11561397
182	0xbd5391a5	-0.05165257
183	0xbe8c7cb2	-0.27438885
184	0x3c23124e	0.009953095
185	0x3e4d71f9	0.20063008
186	0xbe8904d9	-0.2676151
187	0xbe8b192e	-0.27167648
188	0xbed274df	-0.4110479
189	0x3b209329	0.0024501777
190	0x3cb8acba	0.0225433
191	0x3dfd4ca9	0.123681374
192	0x3dd50d9c	0.104029864
193	0x3c91243d	0.017717475
194	0xbd0f8ff4	-0.035049394
195	0x3b99d94e	0.004695094
196	0x3cae3150	0.021263748
197	0x3e3516d5	0.17684491
198	0xbe54bbdd	-0.20774789
199	0x3e26a866	0.16275176
200	0x3d0a387e	0.03374528
201	0x3eaa4873	0.332584
202	0x3cac95dc	0.021067552
203	0x3e378a4f	0.17923854
204	0x3e3ed47a	0.18635741
205	0x3d1bc1e1	0.038026694
206	0xbd7a74ff	-0.061146732
207	0x3eb14352	0.34621674
208	0x3d963386	0.07334046
209	0xbe52456d	-0.20534296
210	0xbf079750	-0.5296526
211	0xbebb0a14	-0.36531126
212	0x3e0ec055	0.13940556
213	0x3e0e7cec	0.13914841
214	0x3cfaa39e	0.030595597
215	0xbe3d66ba	-0.18496218
216	0xbdf5b4b3	-0.11997356
217	0xbe4b2fa7	-0.19842397
218	0x3e7a5e4e	0.24450037
219	0xbe846585	-0.25858703
220	0x3e342aee	0.17594501
221	0x3d325c70	0.043545187
222	0xbe9c1aec	-0.3048929
223	0x3e0db174	0.13837224
224	0xbea4985b	-0.32147488
225	0x3db42b77	0.08797353
226	0x3e68338a	0.2267591
227	0x3e12e129	0.14343704
228	0xbe368ab5	-0.1782635
229	0x3ea7f828	0.32806516
230	0xbe974683	-0.29545984
231	0x3d8dc823	0.06922939
232	0x3dc20dc8	0.09475285
233	0x3a568de1	0.0008184594
234	0xbefff129	-0.49988678
235	0x3d68ae8e	0.056807093
236	0x3da8260b	0.08210381
237	0x3d83db8e	0.06438361
238	0x3b9ae89c	0.004727436
239	0x3d89e59a	0.06733246
240	0xbee57c64	-0.44821465
241	0xbe4105b3	-0.1884983
242	0x3c85ec21	0.016347947
243	0x3d97b7a7	0.07408076
244	0x3aec1dc6	0.0018014244
245	0x3e073e50	0.13207364
246	0x3cb19a85	0.021680126
247	0xbd6c2b4b	-0.057658475
248	0x3e391704	0.18075186
249	0x3dc1fd48	0.09472138
250	0x3e99f3e7	0.30068895
251	0x3dbe1de4	0.09283045
252	0x3e4ba243	0.19886117
253	0xbed5179c	-0.41619575
254	0xbdd37bb8	-0.10326332
255	0x3de34e5d	0.11098931

fc1.bias f4 [256]
0	0xbe08b0ff	-0.13348769
1	0xbcaac54d	-0.020846033
2	0x3e65e74e	0.22451517
3	0x3ddf45e0	0.109019995
4	0xbd971a03	-0.07378008
5	0xbe5f0a8a	-0.21781364
6	0xbd3e6cfc	-0.046490654
7	0xbc525c88	-0.012839444
8	0x3d15c6af	0.036566433
9	0x3cae0ff2	0.021247838
10	0xbcd8dd9d	-0.026472861
11	0x3e257719	0.16158713
12	0x3e9ebccb	0.31003413
13	0x3e5b2aad	0.21402998
14	0xbcc93181	-0.024559738
15	0x3d435d4f	0.047696408
16	0x3c71e8e4	0.014764998
17	0x3e1839e7	0.14865838
18	0x3dbd3571	0.09238709
19	0x3c355a45	0.011068885
20	0x3d046e10	0.032331526
21	0xbdd94ceb	-0.10610374
22	0xbca62778	-0.020282492
23	0xbd34902f	-0.044082817
24	0xbe5140cb	-0.20434873
25	0xbd9701ac	-0.07373366
26	0xbe8469d8	-0.25862002
27	0xbda3b926	-0.07994299
28	0xbe502fda	-0.20330754
29	0xbe9635be	-0.29337877
30	0xbdff1b80	-0.12456417
31	0xbcddd56a	-0.027079303
32	0xbdeda73d	-0.11604164
33	0x3e2877ff	0.16452025
34	0xbcf5fc3c	-0.030027501
35	0x3db66c5b	0.08907386
36	0xbd400974	-0.046884015
37	0x3e292492	0.16517857
38	0x3e53f69f	0.20699547
39	0xbd7eff62	-0.06225527
40	0x3e1b76d5	0.1518205
41	0xbdc840f2	-0.09778012
42	0xbe084ecc	-0.13311309
43	0xbe776e90	-0.2416327
44	0x3d7abbce	0.06121426
45	0x3dd182f9	0.10230059
46	0xbd6ca4fe	-0.057774536
47	0x3e6a6eee	0.22893879
48	0xbd8bed9b	-0.06832429
49	0x3e4f472b	0.20241992
50	0xbd9dd319	-0.07706279
51	0x3d09b053	0.03361542
52	0xbe1f0b7f	-0.15531729
53	0xbd534471	-0.051578943
54	0x3d74dea6	0.059782647
55	0x3e0e4f90	0.13897538
56	0xbdfabb50	-0.12242758
57	0x3e82abee	0.25521797
58	0xbdbf6ca8	-0.093468964
59	0xbc3f5063	-0.0116768805
60	0x3d005cc3	0.031338464
61	0x3e009750	0.12557721
62	0xbdd1971d	-0.10233901
63	0x3e5d780e	0.21627828
64	0xbd4371e3	-0.047716033
65	0x3d0e2db8	0.03471157
66	0x3d4810ff	0.048844334
67	0xbcb980ca	-0.02264442
68	0x3db379f9	0.08763499
69	0xbe31243f	-0.17298983
70	0x3dc4ffa4	0.09619072
71	0xbd8245cd	-0.0636097
72	0xbd610e80	-0.05494547
73	0x3e0ed5ea	0.13948789
74	0xbdda92d5	-0.10672537
75	0x3e891524	0.26773942
76	0xbcb66fc9	-0.0222701
77	0x3dac2d3c	0.08407065
78	0xbe30caa8	-0.17264807
79	0xbcdb7f8c	-0.026794218
80	0xbe3738aa	-0.1789271
81	0x3e22abfa	0.15885916
82	0xbae6602d	-0.001757627
83	0x3d57ec0b	0.052715342
84	0x3df24a9c	0.11830637
85	0x3d2b4a1e	0.04181873
86	0x3e01c6be	0.1267347
87	0x3e01f446	0.12690839
88	0xbafea970	-0.0019429158
89	0xbdc1318a	-0.09433277
90	0xbe9ad85a	-0.30243188
91	0xbcc05c3f	-0.023481486
92	0x3e503b30	0.20335078
93	0x3e1d0699	0.15334548
94	0xbd6e1317	-0.058123674
95	0x3c2f2fdd	0.010692564
96	0xbd737b07	-0.0594435
97	0xbda99dfc	-0.08282086
98	0x3e1fd0c0	0.15606976
99	0xbe2941cd	-0.16529007
100	0xbd8896e5	-0.06669406
101	0xbcd67cd7	-0.026182575
102	0x3da75280	0.081700325
103	0x3c41520c	0.011799347
104	0xbd875a64	-0.066090375
105	0x3e96c726	0.29448813
106	0x3e248250	0.16065335
107	0xbe8ebe3e	-0.27879518
108	0x3e10bfae	0.1413562
109	0xbcc9d2a3	-0.024636572
110	0x3e26fad4	0.16306621
111	0x3ea7ba3e	0.3275928
112	0xbdc2dfd6	-0.095153496
113	0xbe90167d	-0.28142157
114	0x3e1493b5	0.14509471
115	0x3dd04377	0.10169118
116	0x3e09396d	0.13400812
117	0xbdf3b365	-0.11899451
118	0x3e748740	0.23879719
119	0x3e7e6401	0.24842836
120	0x3e42015f	0.18945836
121	0x3d80df0b	0.06292542
122	0x3d9758cb	0.07389983
123	0x3d5832e7	0.05278292
124	0xbd183487	-0.03715947
125	0xbd5b9e6a	-0.053617872
126	0x3c9c02dd	0.019044334
127	0x3dd03ffd	0.10168455
128	0x3e13d17a	0.14435378
129	0xbe009e50	-0.12560391
130	0x3e61eb0a	0.22062317
131	0x3e81ce2b	0.25352606
132	0x3dcdc9d8	0.10048264
133	0xbea99d57	-0.33127853
134	0xbce8c073	-0.02841208
135	0x3e33c5fb	0.17555992
136	0xbe4ebd1f	-0.20189331
137	0x3d8ebed2	0.0696999
138	0x3e02074f	0.126981
139	0xbe351beb	-0.17686431
140	0xbc5fb4a0	-0.013653904
141	0x3d23b21b	0.039964776
142	0xbd9dc27c	-0.077031106
143	0x3d9f6f85	0.077849425
144	0xbb486503	-0.0030577786
145	0x3e40650e	0.1878855
146	0x3dc7adee	0.09749971
147	0x3defcd38	0.11709064
148	0xbcd76593	-0.026293552
149	0xbdc06cbf	-0.09395742
150	0xbdc026b6	-0.093823835
151	0xbd800ee5	-0.06252841
152	0x3c72b605	0.014813905
153	0xbe8bdfaa	-0.2731908
154	0xbe553d96	-0.20824274
155	0x3d2b5623	0.041830193
156	0xbcd1fefd	-0.025634283
157	0x3dee81b5	0.116458334
158	0xbce98ea7	-0.028510405
159	0xbe3dc7f2	-0.18533304
160	0x3d714e61	0.05891264
161	0x3eb3ad4e	0.35093158
162	0x3e8fcfcd	0.28088227
163	0x3c97b5d0	0.018519312
164	0x3e6f9be4	0.23399311
165	0xbd4c80a4	-0.04992737
166	0xbdc19742	-0.09452678
167	0xbe019686	-0.12655076
168	0x3d2d77a7	0.042350437
169	0x3de21c2e	0.11040531
170	0xbe3f8dd3	-0.18706445
171	0xbe68ad83	-0.2272244
172	0x3df0f652	0.11765732
173	0x3ea243ba	0.31692296
174	0xbc3207a6	-0.010866081
175	0x3ccb0135	0.024780849
176	0x3dc9e01b	0.09857198
177	0x3d239246	0.03993442
178	0x3e89c63e	0.2690906
179	0x3e63bf61	0.22240974
180	0xbe29bb03	-0.16575246
181	0xbe8bd9f6	-0.27314728
182	0x3cb9dcbe	0.022688266
183	0xbe4a5ca3	-0.197619
184	0xbdc62c5b	-0.09676429
185	0xbd8ade0a	-0.06780632
186	0xbe12d529	-0.14339127
187	0xbd530ff2	-0.05152888
188	0xbe6049cc	-0.21903151
189	0x3e3a5185	0.1819516
190	0xbe46a3ee	-0.19398472
191	0x3e7049cc	0.23465651
192	0xbd91706e	-0.071015224
193	0x3e0cb561	0.13741066
194	0xbe226677	-0.158594
195	0x3da9fefa	0.08300586
196	0x3e38d7bc	0.18051046
197	0xbdbf2d1c	-0.09334776
198	0xbdd758b6	-0.10514967
199	0x3e3606a5	0.17775972
200	0x3caf8fd6	0.021430891
201	0x3d1d8a4f	0.03846198
202	0xbda984a9	-0.08277256
203	0x3cb92df3	0.022604918
204	0x3d01a361	0.03164995
205	0x3d0aa6db	0.033850532
206	0x3e03a750	0.12856793
207	0x3e7628c3	0.24038987
208	0x3e9fde0b	0.31224093
209	0xbdada5c4	-0.08478883
210	0x3e343366	0.17597732
211	0xbd5836d7	-0.052786674
212	0xbe1c9014	-0.15289336
213	0x3e3cefa0	0.18450785
214	0x3c6a89b8	0.014315061
215	0xbe2776c1	-0.16353895
216	0x3cf7cab1	0.030248018
217	0xbe1db272	-0.15400103
218	0x3eb91da9	0.3615544
219	0xbd580627	-0.052740242
220	0xbe9e90a5	-0.3096973
221	0xbe9103a0	-0.28323078
222	0x3d8e3ac3	0.06944802
223	0xbd7efcec	-0.062252924
224	0x3d0be527	0.034154084
225	0xbe028862	-0.12747338
226	0xbdfaddf2	-0.12249364
227	0x3e1cfce2	0.15330842
228	0x3e3ef0e6	0.18646583
229	0xbda00e7c	-0.07815263
230	0xbe5a0349	-0.21290316
231	0x3e01a92e	0.12662193
232	0x3b4f1400	0.0031597614
233	0xbdcffcf7	-0.10155671
234	0x3dfb8415	0.12281052
235	0xbd4193f1	-0.04726023
236	0xbc1b8e6f	-0.009494408
237	0xbd569c47	-0.05239513
238	0x3e930f04	0.28722394
239	0xbd8afa41	-0.067860134
240	0x3e432308	0.19056332
241	0xbd2383bd	-0.039920557
242	0xbe0bcd3c	-0.1365251
243	0x3dfa40c8	0.12219387
244	0x3e0cd6cf	0.13753818
245	0x3e4e3ce8	0.20140421
246	0xbe9592ec	-0.29213655
247	0x3e89c912	0.26911217
248	0x3eba6ccb	0.36411127
249	0xbb1eb757	-0.0024218166
250	0x3d0b16a2	0.03395713
251	0xbd45a911	-0.048256937
252	0xbd518cf4	-0.051159814
253	0x3e7446ae	0.23855087
254	0x3ddf4f22	0.10903765
255	0x3df161e4	0.11786249

bn1.weight f4 [256]
0	0x3f531b4c	0.82463527
1	0x3f803078	1.0014791
2	0x3f6ee54a	0.9331862
3	0x3f87c7ae	1.0607812
4	0x3f883b2c	1.0643058
5	0x3f7e7ac7	0.99406093
6	0x3f4d45c3	0.8018457
7	0x3f883558	1.0641279
8	0x3f437fd4	0.76366925
9	0x3f6f4320	0.934618
10	0x3f74d768	0.95641184
11	0x3f9df6e9	1.2340976
12	0x3f943686	1.1579139
13	0x3f5664de	0.8374766
14	0x3f959021	1.168461
15	0x3f3dd4dd	0.7415293
16	0x3f5e4fc9	0.8684049
17	0x3f63ab1e	0.8893298
18	0x3f92dd9b	1.1473879
19	0x3f73ea50	0.9527941
20	0x3f7d207a	0.9887768
21	0x3f7ffaef	0.9999227
22	0x3f83d553	1.0299476
23	0x3f9d19c6	1.227349
24	0x3f91e4d1	1.1397954
25	0x3f79f867	0.97644657
26	0x3fa7fcfc	1.312408
27	0x3f958e7c	1.1684108
28	0x3f996975	1.1985308
29	0x3f70adef	0.940154
30	0x3f874d9c	1.057056
31	0x3f894568	1.0724306
32	0x3f51163d	0.8167456
33	0x3f62d41e	0.88604915
34	0x3f7ed292	0.99540055
35	0x3f85e4ef	1.046049
36	0x3f840a0e	1.0315568
37	0x3f76d700	0.96421814
38	0x3f830fee	1.0239236
39	0x3f8d734b	1.105081
40	0x3f743b1e	0.95402706
41	0x3f8caad5	1.0989634
42	0x3f859746	1.043679
43	0x3f72cbcb	0.94842213
44	0x3f9fd3e9	1.2486545
45	0x3f9870c6	1.1909416
46	0x3fbabadf	1.4588279
47	0x3f9c2f71	1.2201978
48	0x3f984c5c	1.1898303
49	0x3f7bde4c	0.98386073
50	0x3f851762	1.0397761
51	0x3f6bc2c8	0.9209409
52	0x3f439cb8	0.7641101
53	0x3f8b129d	1.0865055
54	0x3f934c62	1.1507685
55	0x3f83dfe0	1.0302696
56	0x3f905261	1.127514
57	0x3f8bcc1d	1.0921665
58	0x3f6483a3	0.8926336
59	0x3f9f4a0c	1.2444472
60	0x3f8ed8a4	1.1159863
61	0x3f579ea7	0.8422646
62	0x3f7453ca	0.9544035
63	0x3f846982	1.0344698
64	0x3f8328e5	1.0246855
65	0x3f95cbca	1.1702816
66	0x3f83cd08	1.0296946
67	0x3f80e94f	1.00712
68	0x3f94970e	1.1608598
69	0x3f8c7157	1.0972089
70	0x3f5fb6cb	0.87388295
71	0x3f5d2e87	0.8639912
72	0x3f618eb5	0.8810838
73	0x3f99629d	1.1983219
74	0x3f5fe39d	0.87456685
75	0x3f997c74	1.1991105
76	0x3f53e3e9	0.8276964
77	0x3f8c23d7	1.0948437
78	0x3f445642	0.7669412
79	0x3f7c01e9	0.98440415
80	0x3f7aa82e	0.9791287
81	0x3f7c31e8	0.9851365
82	0x3f8a035d	1.0782276
83	0x3faeed4c	1.3666167
84	0x3f9be0cc	1.2177978
85	0x3f8f8982	1.1213839
86	0x3f67a089	0.9047933
87	0x3f511b77	0.81682533
88	0x3f8145bb	1.0099405
89	0x3f8f7b45	1.1209494
90	0x3f92b668	1.1461916
91	0x3f693d0c	0.91108775
92	0x3f6f8124	0.9355643
93	0x3f379dd0	0.7172518
94	0x3f8efbf0	1.1170635
95	0x3f793b29	0.97355896
96	0x3f6fc161	0.9365445
97	0x3f86d078	1.053237
98	0x3f56b3d0	0.8386812
99	0x3fa3a923	1.2785991
100	0x3f9f23fa	1.2432854
101	0x3f955397	1.1666135
102	0x3f809bdd	1.0047566
103	0x3f8dc056	1.1074321
104	0x3f7b3926	0.98134077
105	0x3f9125c6	1.1339653
106	0x3f96ac6e	1.1771371
107	0x3f9232af	1.1421717
108	0x3f848741	1.0353776
109	0x3f6b94ff	0.92024225
110	0x3f850b97	1.0394162
111	0x3f82ffe1	1.0234338
112	0x3f827a7d	1.019363
113	0x3f57682b	0.8414332
114	0x3f818d1b	1.0121187
115	0x3f83e28f	1.0303515
116	0x3f672e21	0.9030476
117	0x3f68fed3	0.9101383
118	0x3f9c8876	1.2229145
119	0x3f86ad37	1.0521611
120	0x3f817a27	1.0115403
121	0x3f925080	1.1430817
122	0x3f70ee22	0.9411336
123	0x3f93a2a9	1.1534015
124	0x3f967d3b	1.1756967
125	0x3f84126f	1.0318125
126	0x3f989c28	1.1922655
127	0x3f5ea938	0.8697696
128	0x3f91ef3c	1.1401134
129	0x3f98cd6e	1.1937692
130	0x3f654834	0.895633
131	0x3f7fffe2	0.9999982
132	0x3f8313f2	1.0240462
133	0x3f9b5928	1.2136583
134	0x3f9ea989	1.2395488
135	0x3f8cff6b	1.1015447
136	0x3fa58d29	1.2933704
137	0x3f913bf1	1.1346418
138	0x3f703be1	0.9384137
139	0x3f8edc27	1.1160935
140	0x3f8f71a6	1.1206558
141	0x3f4f543b	0.809879
142	0x3f9a919d	1.2075688
143	0x3f8d3758	1.1032515
144	0x3f870967	1.0549744
145	0x3f9090a6	1.1294143
146	0x3f86e8b0	1.053976
147	0x3f67b6ca	0.9051329
148	0x3f9e5290	1.2368946
149	0x3f827222	1.019108
150	0x3f888f5c	1.066875
151	0x3f778a03	0.96694964
152	0x3f73e39d	0.95269185
153	0x3f5e5815	0.8685315
154	0x3f89a013	1.0751976
155	0x3f95efec	1.1713843
156	0x3f8b8333	1.0899414
157	0x3f8ad6f3	1.0846847
158	0x3f9155bf	1.1354293
159	0x3f89683c	1.0734935
160	0x3f6bdf0c	0.9213722
161	0x3f88c87e	1.0686185
162	0x3f85c382	1.0450289
163	0x3f92c611	1.1466695
164	0x3f5d3909	0.86415154
165	0x3f84d708	1.0378122
166	0x3f9cb192	1.224169
167	0x3f588871	0.84583193
168	0x3f946312	1.1592734
169	0x3f853568	1.0406923
170	0x3f755c8f	0.9584436
171	0x3f5b5e5a	0.85690844
172	0x3f4023e3	0.7505476
173	0x3f8ae366	1.0850646
174	0x3f7178e3	0.94325083
175	0x3f6d882e	0.9278592
176	0x3f80af32	1.0053465
177	0x3f728be6	0.9474472
178	0x3f6ce639	0.9253879
179	0x3f88c083	1.068375
180	0x3fa4aa38	1.2864447
181	0x3f76d3de	0.96417034
182	0x3f861135	1.0474001
183	0x3f6bf688	0.9217305
184	0x3f72b48c	0.9480674
185	0x3f900df3	1.1254257
186	0x3f8a12b9	1.0786964
187	0x3f77d23f	0.96805185
188	0x3f752aa4	0.9576819
189	0x3f6b4cc5	0.91914016
190	0x3f77ec3e	0.9684485
191	0x3f6b17db	0.91833276
192	0x3f8de359	1.1085006
193	0x3f5f07e7	0.87121433
194	0x3f8352ae	1.0259607
195	0x3f8ed640	1.1159134
196	0x3f8fdde0	1.1239586
197	0x3fba30e9	1.4546176
198	0x3f8f89e5	1.1213957
199	0x3f4c1ea2	0.7973424
200	0x3f985d5b	1.190349
201	0x3f4939e0	0.78603935
202	0x3f430622	0.7618123
203	0x3f806c50	1.0033054
204	0x3f8db8bf	1.1072005
205	0x3f7fb18d	0.99880296
206	0x3f93b561	1.1539727
207	0x3f7eeb09	0.99577385
208	0x3f740ebe	0.95334995
209	0x3f80bb81	1.0057222
210	0x3f6dfdd4	0.92965436
211	0x3f6af36c	0.9177768
212	0x3f8ed794	1.1159539
213	0x3f92a8db	1.1457781
214	0x3f87d8c2	1.0613024
215	0x3f9c2dac	1.2201438
216	0x3f8b4ea9	1.088338
217	0x3f810d11	1.0082113
218	0x3f76ba00	0.96377563
219	0x3fa65a0e	1.2996233
220	0x3f7d0181	0.9883042
221	0x3f7f87ff	0.9981689
222	0x3f80f3ff	1.0074462
223	0x3f8b5aa2	1.0887034
224	0x3f859a23	1.0437664
225	0x3f8e30d0	1.1108646
226	0x3f4fcdc4	0.8117335
227	0x3f8773d5	1.0582224
228	0x3f3863cb	0.7202727
229	0x3f77e589	0.9683462
230	0x3f93c39c	1.154407
231	0x3f369f4b	0.7133681
232	0x3f9f534c	1.2447295
233	0x3f842c4f	1.0326022
234	0x3f7afeb3	0.9804489
235	0x3f5c84d2	0.8614017
236	0x3f8ac418	1.0841093
237	0x3f52515b	0.8215539
238	0x3f80abe1	1.0052453
239	0x3f83071a	1.0236542
240	0x3f801c78	1.0008688
241	0x3f750366	0.9570831
242	0x3f909800	1.1296387
243	0x3f96149e	1.1725042
244	0x3f7970ed	0.97437936
245	0x3f71d2a7	0.94462055
246	0x3f45d58d	0.7727898
247	0x3fa90541	1.3204728
248	0x3f7a7b32	0.9784423
249	0x3f88a323	1.0674785
250	0x3f8066d7	1.0031384
251	0x3f92002c	1.1406302
252	0x3f56e4d8	0.8394294
253	0x3f588e5c	0.84592223
254	0x3f9123c7	1.1339043
255	0x3f7d7bc4	0.99016976

bn1.bias f4 [256]
0	0xbed088af	-0.4072928
1	0xbe565140	-0.20929432
2	0xbe958789	-0.29204968
3	0xbe44d104	-0.19220358
4	0xbe7992c8	-0.24372399
5	0xbeabee71	-0.33580354
6	0xbec9cfba	-0.39416295
7	0xbea8cedd	-0.32970324
8	0xbe9a38e6	-0.30121535
9	0xbe5d8fe7	-0.21636926
10	0xbea7f72a	-0.3280576
11	0xbe3f4624	-0.186791
12	0xbdc27c90	-0.09496415
13	0xbe616a84	-0.22013289
14	0xbf18bd9b	-0.59664315
15	0xbeba618e	-0.36402553
16	0xbec130e4	-0.37732613
17	0xbecdd20b	-0.40199313
18	0xbe7ddd96	-0.2479156
19	0xbdd64759	-0.10462827
20	0xbe0f6a31	-0.14005353
21	0xbe7d0cb7	-0.24711882
22	0xbe9b8c12	-0.30380303
23	0xbe249d42	-0.16075614
24	0xbe20903d	-0.15680023
25	0xbed3c3ec	-0.41360414
26	0xbe330f92	-0.17486408
27	0xbec561eb	-0.38551268
28	0xbe558f9a	-0.20855561
29	0xbe2aba42	-0.16672614
30	0xbe8493f0	-0.25894117
31	0xbe422615	-0.1895984
32	0xbefb1fbf	-0.49047658
33	0xbedd975a	-0.43279535
34	0xbef9c81c	-0.48785484
35	0xbeb8431d	-0.35988703
36	0xbe3db9b3	-0.1852787
37	0xbe17b573	-0.14815311
38	0xbe5ca39c	-0.21546787
39	0xbe7a409b	-0.24438708
40	0xbe389719	-0.18026389
41	0xbeeea367	-0.4660904
42	0xbeb4363c	-0.35197628
43	0xbe8eb180	-0.27869797
44	0xbead1f1f	-0.33812806
45	0xbe8efbcb	-0.27926478
46	0xbe8a18b5	-0.26971975
47	0xbce602d0	-0.028077513
48	0xbe1a2034	-0.15051347
49	0xbe0c6842	-0.13711646
50	0xbe493704	-0.19649893
51	0xbf012ee7	-0.5046219
52	0xbf04fcf6	-0.5194849
53	0xbc64a458	-0.013955198
54	0xbe8a5438	-0.2701738
55	0xbea05585	-0.31315246
56	0xbe0da298	-0.13831556
57	0xbe0d7823	-0.1381536
58	0xbe9d83ce	-0.30764621
59	0xbe8107e4	-0.25201333
60	0xbe881d8a	-0.26585037
61	0xbeff23ff	-0.4983215
62	0xbe3062bd	-0.17225166
63	0xbec42502	-0.38309485
64	0xbe8f9746	-0.280451
65	0xbe9c76b9	-0.30559328
66	0xbec06958	-0.3758037
67	0xbeb92a41	-0.3616505
68	0xbe27d54b	-0.16389959
69	0xbf055d0c	-0.52095103
70	0xbec470dd	-0.38367358
71	0xbe85eb4e	-0.26156086
72	0xbef8b312	-0.4857412
73	0xbdd0dda4	-0.101985246
74	0xbf02870d	-0.5098732
75	0x3cca2788	0.024677053
76	0xbea7a7c1	-0.32745174
77	0xbe48965b	-0.19588606
78	0xbec47ebe	-0.38377947
79	0xbe60ae9d	-0.2194161
80	0xbed069af	-0.4070563
81	0x3d248ee4	0.040175334
82	0xbccd8409	-0.025087373
83	0xbdbcaa17	-0.092121296
84	0xbe9341bd	-0.28761092
85	0xbd98fcd3	-0.074700974
86	0xbe8ba5ec	-0.27275026
87	0xbf00256b	-0.50057095
88	0xbea54ce1	-0.32285216
89	0xbedc6e2b	-0.430528
90	0xbe3503f7	-0.17677294
91	0xbe551732	-0.2080963
92	0xbef244cf	-0.47318122
93	0xbee9e37d	-0.45681372
94	0xbe8c1ddf	-0.2736654
95	0xbd97a270	-0.07404029
96	0xbdea6d5d	-0.11446641
97	0xbe323d5c	-0.17406219
98	0xbea18ebc	-0.3155421
99	0x3c07ab9e	0.008280663
100	0xbded16b7	-0.11576598
101	0xbe8df244	-0.27723897
102	0xbe26102f	-0.16217111
103	0xbe45cf08	-0.19317257
104	0xbe886745	-0.26641288
105	0xbea5723f	-0.32313725
106	0xbe9167b6	-0.28399438
107	0xbe72fd95	-0.23729546
108	0xbe2e58c7	-0.17026053
109	0xbe5c2be2	-0.21501115
110	0xbe7703ac	-0.24122494
111	0xbeeddc4e	-0.46457142
112	0xbecb5e60	-0.3972044
113	0xbf0ca6a4	-0.54941773
114	0xbe1c4ddc	-0.15264076
115	0xbe1c0ad6	-0.15238509
116	0xbeb8db4a	-0.36104804
117	0xbed26696	-0.41093892
118	0xbdfbf8dd	-0.12303326
119	0xbe834953	-0.2564188
120	0xbe374229	-0.17896332
121	0xbede2d22	-0.4339381
122	0x3cb2a7aa	0.021808464
123	0xbe57ddd2	-0.21080711
124	0xbe6a07e1	-0.22854568
125	0xbed811a3	-0.42200956
126	0xbe29524d	-0.16535302
127	0xbe2dbf9d	-0.16967626
128	0xbe7922c4	-0.24329668
129	0xbe52ffe5	-0.20605429
130	0xbe9f5a4c	-0.3112358
131	0xbeab34ba	-0.33438665
132	0xbe1687bf	-0.1470022
133	0xbe9234b9	-0.2855585
134	0xbf185d45	-0.5951732
135	0xbe64c468	-0.22340548
136	0xbe337e55	-0.1752866
137	0xbe7f3c8b	-0.24925439
138	0xbe7e556c	-0.24837273
139	0xbe9d977e	-0.30779642
140	0xbe7754ee	-0.24153492
141	0xbe92959e	-0.28629774
142	0xbe845d38	-0.2585237
143	0xbed95a3d	-0.4245166
144	0xbc8d40e5	-0.017242858
145	0xbe73e77c	-0.23818773
146	0x3d886129	0.06659157
147	0xbd7121cf	-0.058870133
148	0xbd361da3	-0.044461858
149	0xbece5060	-0.40295696
150	0xbec17ea3	-0.3779193
151	0xbe93af9e	-0.28844923
152	0xbe234b71	-0.15946747
153	0xbec54452	-0.38528687
154	0xbeb94a3a	-0.36189443
155	0xbdf2e91e	-0.1186087
156	0xbe966ce3	-0.2937995
157	0xbea9b4f3	-0.33145866
158	0xbe1c4e97	-0.15264355
159	0xbe76aef1	-0.24090172
160	0xbea9e561	-0.33182815
161	0xbde9fd7d	-0.11425302
162	0xbe0bf09e	-0.13666007
163	0xbe2fd60c	-0.17171496
164	0xbdae8654	-0.08521715
165	0xbd947b94	-0.07250133
166	0xbea2313a	-0.31678182
167	0xbefa7ea0	-0.48924732
168	0xbe920e6a	-0.28526622
169	0xbf1fdf36	-0.6244997
170	0xbe0a1395	-0.13484032
171	0xbf136aaa	-0.5758463
172	0xbe968e79	-0.29405573
173	0xbebf2762	-0.37334734
174	0xbe881966	-0.26581877
175	0x3c0786ae	0.008271856
176	0xbe0710b7	-0.1318997
177	0x3c50b48d	0.012738359
178	0xbe38e895	-0.18057473
179	0xbdbd6307	-0.092474036
180	0xbe936472	-0.2878757
181	0xbe84ac86	-0.25912875
182	0xbec678fa	-0.38764173
183	0xbe1d1550	-0.15340161
184	0xbf04e3f5	-0.51910335
185	0xbe6e297a	-0.2325801
186	0xbe98f107	-0.2987139
187	0xbdf01299	-0.11722297
188	0xbe615d2a	-0.22008196
189	0xbe14ac3e	-0.1451883
190	0xbee1bc3e	-0.4408893
191	0xbe328d30	-0.17436671
192	0xbcd66a20	-0.026173651
193	0xbe9fd111	-0.31214193
194	0xbe971670	-0.29509306
195	0xbe3c6cd0	-0.18400884
196	0xbe011424	-0.1260534
197	0xbe12f6f8	-0.14352024
198	0xbede6c0b	-0.43441805
199	0xbec06f80	-0.37585068
200	0xbd28aecb	-0.04118232
201	0xbe816e60	-0.25279522
202	0xbdc22bf8	-0.094810426
203	0xbea9b818	-0.33148265
204	0xbe0e61cc	-0.13904494
205	0xbe03f5f1	-0.12886788
206	0xbe2f2270	-0.1710298
207	0xbe6ea0a0	-0.23303461
208	0xbd51cd52	-0.0512212
209	0xbef33e02	-0.47508246
210	0xbe4e1ca1	-0.20128109
211	0xbe8c9521	-0.27457526
212	0xbe03e5b1	-0.12880589
213	0xbe58843f	-0.21144198
214	0xbe6c3554	-0.23067218
215	0xbe419c96	-0.18907389
216	0xbe707b9e	-0.23484656
217	0xbdcd225a	-0.10016318
218	0xbe96b16e	-0.29432243
219	0xbef70e7e	-0.48253244
220	0xbe56971d	-0.20956083
221	0xbe51cc40	-0.20488071
222	0xbee8ac02	-0.45443732
223	0xbed9c758	-0.425349
224	0xbe036419	-0.12831153
225	0xbe4dc04e	-0.2009289
226	0xbdb62fe1	-0.08895851
227	0xbe8d13dc	-0.27554214
228	0xbed8bcce	-0.42331547
229	0xbe7c0d76	-0.2461451
230	0xbeb67966	-0.35639495
231	0xbefb7185	-0.49110046
232	0x3c9991d5	0.018746296
233	0x3d054eec	0.03254597
234	0xbe1bf744	-0.15231043
235	0xbe625218	-0.22101629
236	0xbd45bac2	-0.04827381
237	0xbed76d85	-0.42075744
238	0xbe888a16	-0.2666785
239	0xbe4d8918	-0.20071828
240	0xbe9d33c5	-0.3070356
241	0xbddc1ec6	-0.10748057
242	0xbec2d0b6	-0.3804986
243	0xbe98e57e	-0.2986259
244	0xbe81cf05	-0.25353256
245	0xbdd7a0c0	-0.105287075
246	0xbec9c852	-0.39410645
247	0xbe320d18	-0.17387807
248	0xbd06e6ce	-0.032934956
249	0xbe876711	-0.2644582
250	0xbeda4393	-0.4262968
251	0xbca233e7	-0.01980014
252	0xbeefd062	-0.4683867
253	0xbec57ffc	-0.38574207
254	0xbe3a83b9	-0.1821431
255	0xbec543b1	-0.38528207

bn1.running_mean f4 [256]
0	0xbee8164c	-0.4532951
1	0x3e8b65eb	0.27226195
2	0x3ebbb726	0.3666317
3	0x3dc48273	0.09595194
4	0xbe4fbb59	-0.20286311
5	0xbde23253	-0.11044755
6	0x3e69296a	0.22769704
7	0x3ea5883c	0.323305
8	0x3be2afc6	0.0069179265
9	0xbeb8e1b0	-0.36109686
10	0xbe0b261c	-0.13588756
11	0x3e9a07d4	0.30084097
12	0x3f0bceef	0.5461263
13	0x3ec70f8c	0.3887905
14	0x3e03d791	0.12875201
15	0xbe01c873	-0.12674122
16	0xbb8b02be	-0.0042422703
17	0x3d334b85	0.043773193
18	0x3e00f662	0.12593988
19	0xbdabe3d5	-0.08393065
20	0x3e520643	0.20510201
21	0x3e8f8e48	0.2803824
22	0x3eb80e7b	0.35948548
23	0x3be3819f	0.0069429423
24	0xbc9da749	-0.019244807
25	0xbed3db60	-0.41378307
26	0x3e5d11e5	0.21588857
27	0x3d1b2a31	0.037882034
28	0xbd744b6e	-0.059642248
29	0x3d940469	0.07227404
30	0xbef3f9a7	-0.47651407
31	0x3e508340	0.20362568
32	0xbf059519	-0.5218063
33	0x3de83131	0.113375075
34	0x3cc08810	0.02350238
35	0x3e8ade37	0.2712266
36	0xbdea8fc9	-0.11453206
37	0x3e8c854c	0.27445447
38	0x3f0804e2	0.5313245
39	0xbd0ce8cd	-0.034401704
40	0x3e93e525	0.2888576
41	0xbd680340	-0.056643724
42	0xbe630308	-0.22169125
43	0x3ddcf168	0.10788232
44	0x3eb31daa	0.3498357
45	0x3ecbda5a	0.39815027
46	0x3e50258b	0.20326822
47	0x3dae5e01	0.085140236
48	0x3d824b7f	0.06362056
49	0x3daff96c	0.08592495
50	0x3c4cb4d5	0.012494286
51	0x3e4639c0	0.19357967
52	0xbea759b3	-0.32685623
53	0x3e21e333	0.15809326
54	0x3de6f851	0.11277831
55	0x3eb5fc88	0.3554423
56	0x3e77840b	0.24171464
57	0x3ec0fba3	0.37691984
58	0x3b73f943	0.003722743
59	0x3e860b9c	0.26180732
60	0xbc8bd5a7	-0.01706965
61	0xbdb9620d	-0.09051905
62	0x3c267f54	0.010162193
63	0x3ef855f6	0.48503083
64	0xbe0d274a	-0.13784519
65	0x3e922658	0.2854488
66	0xbe13009f	-0.14355706
67	0x3e826d16	0.2547385
68	0x3ece2a3a	0.4026659
69	0x3e43700c	0.19085711
70	0xbe226351	-0.15858199
71	0x3e874ba2	0.2642489
72	0xbda76b9c	-0.08174822
73	0xbd93ee22	-0.072231546
74	0xbde7211a	-0.112856105
75	0x3ee2364b	0.44182047
76	0xbedca9c8	-0.43098283
77	0xbe801f3c	-0.2502383
78	0xbf1100b9	-0.5664173
79	0x3e9c99db	0.30586132
80	0x3d72e32a	0.05929867
81	0x3d3596b2	0.044333167
82	0xbe093374	-0.13398534
83	0x3e296fe8	0.16546595
84	0x3f00bfd2	0.50292695
85	0xbdbe5641	-0.092937954
86	0xbd980557	-0.074228935
87	0xbd022c0f	-0.0317803
88	0x3e99024b	0.29884562
89	0xbe4d4412	-0.20045498
90	0xbe2444a4	-0.1604181
91	0x3e65556d	0.22395869
92	0x3e9757fb	0.2955931
93	0xbedbe3f0	-0.4294734
94	0x3e4f2355	0.20228322
95	0x3e84bf18	0.25927043
96	0xbd91c6fe	-0.07118033
97	0xbbb0b3ce	-0.005392528
98	0x3df1becd	0.118039705
99	0x3dc312ba	0.09525056
100	0x3d504974	0.0508513
101	0xbea4212a	-0.32056552
102	0x3f032c88	0.51239824
103	0x3eb8d7cb	0.36102137
104	0x3e7c886e	0.24661419
105	0x3f0bae1a	0.5456253
106	0x3e2f35d8	0.17110384
107	0xbe0da00b	-0.13830583
108	0x3f0b5cb2	0.54438317
109	0x3e3e2ca7	0.18571721
110	0x3ecba222	0.39772135
111	0x3f4fb0e2	0.81129277
112	0xbe3cfb02	-0.18455127
113	0xbed8ff29	-0.42382172
114	0x3e144ea3	0.14483123
115	0x3dfbb597	0.12290495
116	0x3e43eb1d	0.19132657
117	0xbef1a27b	-0.47194275
118	0x3efff871	0.49994233
119	0x3f2d8521	0.67781264
120	0x3ebc9e53	0.36839542
121	0x3ed3cdb9	0.4136789
122	0x3ea4f6cb	0.32219538
123	0x3ef074a9	0.46964005
124	0x3c7fa571	0.015603409
125	0x3e078a63	0.13236384
126	0xbe2ddc1f	-0.16978501
127	0x3ee5a42c	0.44851816
128	0x3db0da72	0.08635415
129	0x3decee05	0.11568836
130	0xbca3c822	-0.019992892
131	0x3db02dc2	0.086024776
132	0x3ead34de	0.33829397
133	0xbe877e85	-0.26463714
134	0xbc511a98	-0.012762688
135	0x3f06ef26	0.5270866
136	0xbd6ebbb1	-0.058284465
137	0x3eb95085	0.36194244
138	0x3dadb553	0.084818505
139	0x3d998f2f	0.07498013
140	0xbd3aed0c	-0.04563622
141	0x3ed620c7	0.41821882
142	0x3e3a7fbc	0.1821279
143	0x3ec969ed	0.39338627
144	0x3d992681	0.07478047
145	0x3ea56cfa	0.32309705
146	0x3e6c7b74	0.23093969
147	0x3e7c05c4	0.24611574
148	0x3e1460f5	0.14490111
149	0x3dc0a8a4	0.09407166
150	0xbe4514a1	-0.1924615
151	0x3e92ecbb	0.28696236
152	0xbde6b872	-0.11265649
153	0xbf0574d7	-0.5213141
154	0xbead5da4	-0.33860505
155	0xbdc98782	-0.09840299
156	0x3d9355d9	0.071941085
157	0xbdf1e27a	-0.11810775
158	0xbeb72a09	-0.35774258
159	0xbeece36f	-0.46267268
160	0x3e93a4ae	0.28836578
161	0x3ede61e9	0.43434075
162	0x3e9171fd	0.2840728
163	0x3e7a5f0b	0.24450319
164	0x3f118536	0.5684389
165	0xbe39d6f0	-0.18148398
166	0x3e783206	0.24237832
167	0x3dabacb9	0.083825536
168	0x3e81e853	0.25372562
169	0x3eda5127	0.4264004
170	0xbe811c78	-0.25217032
171	0xbf1fe238	-0.6245456
172	0x3ec0c8e0	0.37653255
173	0x3ec15643	0.37761125
174	0x3e3c4b0f	0.18388008
175	0x3d995fc5	0.0748897
176	0x3eaac291	0.33351567
177	0xbd94b554	-0.07261148
178	0x3f1defc3	0.6169397
179	0x3eb49e0b	0.35276827
180	0xbd970ecf	-0.073758714
181	0xbdcff27b	-0.10153671
182	0x3d8caebb	0.06869265
183	0x3dc7f4f1	0.09763516
184	0xbe87563d	-0.26432982
185	0xbd8d879a	-0.069106296
186	0xbcad53dc	-0.021158151
187	0x3e63fe78	0.22265041
188	0x3d0fe99e	0.035134904
189	0x3f0b4f85	0.5441821
190	0xbd3bc85e	-0.045845382
191	0x3f18cd63	0.59688395
192	0xbe5433d3	-0.20722894
193	0x3defbc12	0.117057934
194	0xbeecda1c	-0.46260154
195	0x3ec7c061	0.3901396
196	0xbe59b6b1	-0.21261097
197	0x3e76a2fa	0.24085608
198	0xbbb0df7c	-0.005397735
199	0xbddec64e	-0.10877667
200	0xbbdd287b	-0.0067492104
201	0x3ed4885c	0.41510284
202	0x3e975d07	0.29563162
203	0x3ce411a6	0.027840447
204	0xbe0d529d	-0.13801046
205	0x3e14fd06	0.14549646
206	0x3f160a74	0.586097
207	0x3f150254	0.5820668
208	0x3eab15f0	0.33415174
209	0xbe44a24a	-0.19202533
210	0x3ecb2fb5	0.39684835
211	0x3e92dbdb	0.2868336
212	0xbeff8ced	-0.49912205
213	0x3e191aff	0.14951704
214	0x3e9f88d4	0.3115908
215	0xbe0c36ec	-0.13692826
216	0x3e65428d	0.22388668
217	0xbe7491fa	-0.2388381
218	0x3eaad35a	0.33364373
219	0x3ea450b3	0.3209282
220	0xbcf33f60	-0.029693305
221	0xbe1c3c16	-0.15257296
222	0x3e7da895	0.2477134
223	0x3ec491ae	0.38392395
224	0x3d93df87	0.07220369
225	0x3e63a36c	0.22230309
226	0x3e4b5310	0.19855905
227	0x3d98a445	0.07453207
228	0xbd16e47e	-0.036839
229	0x3e887b72	0.2665668
230	0x3da4af36	0.08041231
231	0x3d9120ea	0.07086356
232	0xbe530ad1	-0.20609595
233	0xbdf5dfc5	-0.12005571
234	0x3f0849e3	0.5323774
235	0x3e329689	0.17440237
236	0x3e423b2d	0.18967886
237	0x3e845683	0.25847253
238	0x3f06c2ff	0.5264129
239	0xbe41b8db	-0.18918173
240	0x3f07a86f	0.52991384
241	0x3e4f4410	0.20240808
242	0x3d7c8d45	0.061658163
243	0x3e0fe394	0.14051658
244	0x3eda9dee	0.42698616
245	0x3eb01d16	0.3439719
246	0xbf189bc3	-0.59612674
247	0x3ec511fd	0.38490286
248	0x3e031bf9	0.1280364
249	0x3e7c9067	0.2466446
250	0x3e841f75	0.2580525
251	0x3e99ee9d	0.3006486
252	0x3d277dcf	0.040891465
253	0x3ef89172	0.48548466
254	0x3d8a5353	0.06754174
255	0x3dd52cb3	0.10408916

bn1.running_var f4 [256]
0	0x3ec6c7ce	0.38824314
1	0x3ebed326	0.37270468
2	0x3e968a91	0.29402593
3	0x3f10a45c	0.5650079
4	0x3f14a9c5	0.5807155
5	0x3e62a177	0.22131906
6	0x3ee12f20	0.43981266
7	0x3f40a4b9	0.75251347
8	0x3eda547b	0.42642578
9	0x3e95fd4f	0.29294822
10	0x3eadc995	0.33942857
11	0x3f14b628	0.5809045
12	0x3f153d0c	0.58296275
13	0x3edc3c84	0.4301492
14	0x3f05b801	0.5223389
15	0x3f0bfbbe	0.54681003
16	0x3f3006bb	0.6876027
17	0x3ebd62d3	0.3698946
18	0x3ee49616	0.44645756
19	0x3f42aa10	0.76040745
20	0x3ee854af	0.45377108
21	0x3e9fd3dc	0.31216323
22	0x3eb4c58a	0.3530696
23	0x3f0064b8	0.50153685
24	0x3f5ec02a	0.8701197
25	0x3e920f74	0.28527415
26	0x3f37dffb	0.7182614
27	0x3ebd277f	0.36944196
28	0x3ed931a7	0.42420694
29	0x3f10dc48	0.5658612
30	0x3eb6f253	0.35731754
31	0x3ec6fb72	0.38863713
32	0x3e954872	0.29156834
33	0x3f361bed	0.7113636
34	0x3f6da02a	0.92822516
35	0x3ec1edb7	0.37876675
36	0x3ef61c13	0.48068294
37	0x3e8d8093	0.27637157
38	0x3ee92050	0.45532465
39	0x3e9f0bd0	0.310637
40	0x3e2b530e	0.16730902
41	0x3ef48c0f	0.47763106
42	0x3e69485f	0.22781514
43	0x3f72943a	0.94757426
44	0x3eda8e43	0.42686662
45	0x3f5bc6fa	0.8585049
46	0x3f11bbd1	0.5692721
47	0x3f032c88	0.51239824
48	0x3f35d639	0.7103
49	0x3ee5f976	0.44916886
50	0x3e7e3999	0.2482666
51	0x3f98637c	1.190536
52	0x3eeefd49	0.46677616
53	0x3ee04ac8	0.43807054
54	0x3e894107	0.26807424
55	0x3ec6e341	0.38845256
56	0x3f1f7774	0.62291646
57	0x3f0f956d	0.5608738
58	0x3ecf8afc	0.40535724
59	0x3e83c8cd	0.25739136
60	0x3f19603e	0.5991248
61	0x3ecb0291	0.39650396
62	0x3edad6ce	0.42742008
63	0x3f598280	0.8496475
64	0x3efb9c8b	0.4914287
65	0x3eb04a6b	0.34431776
66	0x3e13240b	0.14369218
67	0x3e80355a	0.25040704
68	0x3e96914d	0.2940773
69	0x3e2e6aba	0.170329
70	0x3f072e5a	0.528051
71	0x3ed4d8bf	0.41571614
72	0x3e929a9b	0.2863358
73	0x3ea51289	0.32240704
74	0x3eef9401	0.46792606
75	0x3e9f38a2	0.31097895
76	0x3eae739c	0.34072578
77	0x3f0cd6bc	0.5501516
78	0x3eb149cb	0.34626612
79	0x3eaa2c8e	0.33237118
80	0x3f55735c	0.8337915
81	0x3efc3c58	0.4926479
82	0x3ea1be68	0.3159058
83	0x3f36de1f	0.7143268
84	0x3f5d2483	0.8638384
85	0x3f2cef07	0.67552227
86	0x3e72b78d	0.23702832
87	0x3e8d2102	0.27564245
88	0x3f01ed6d	0.5075291
89	0x3e7ec2b6	0.24878964
90	0x3ea7ae49	0.32750157
91	0x3ebb7424	0.36612046
92	0x3e98f93e	0.29877657
93	0x3eed3ed7	0.46337005
94	0x3e8793ec	0.26480043
95	0x3ebeed16	0.37290257
96	0x3ec3690e	0.38166088
97	0x3e97984f	0.2960839
98	0x3ea51093	0.32239208
99	0x3eb9fb83	0.363247
100	0x3ed0bb19	0.40767744
101	0x3e42e8fa	0.19034186
102	0x3e6f83ec	0.23390168
103	0x3f0d9e5d	0.5531977
104	0x3e95a371	0.29226258
105	0x3e8f1933	0.27948913
106	0x3f3dd638	0.74154997
107	0x3ea42d50	0.3206582
108	0x3e4b601f	0.19860886
109	0x3eb7b067	0.35876772
110	0x3e95967a	0.29216367
111	0x3f31a97d	0.69399244
112	0x3f0cf18d	0.5505608
113	0x3f14c26a	0.5810915
114	0x3f2c72cb	0.6736266
115	0x3e6b75a1	0.2299409
116	0x3e9f2c5a	0.31088525
117	0x3ea57059	0.32312277
118	0x3eaff338	0.3436525
119	0x3f1e5f9b	0.6186463
120	0x3ec0817a	0.37598783
121	0x3f166250	0.5874376
122	0x3f3d4ac8	0.7394223
123	0x3e9f3496	0.31094807
124	0x3e9888b1	0.29791787
125	0x3e96c02d	0.29443493
126	0x3f1e73c9	0.61895424
127	0x3e958ca5	0.29208866
128	0x3ee07122	0.43836313
129	0x3f89e832	1.0773985
130	0x3f07b362	0.5300809
131	0x3ee8d43b	0.4547442
132	0x3ea90b0e	0.33016247
133	0x3eae1653	0.34001407
134	0x3f072c58	0.5280204
135	0x3e8a5352	0.27016693
136	0x3ef9dee7	0.48802873
137	0x3ec3c45b	0.38235745
138	0x3f12634f	0.5718278
139	0x3ecc5ae0	0.39913082
140	0x3e60f023	0.21966605
141	0x3f190f2b	0.5978877
142	0x3e97d2cb	0.2965301
143	0x3f78242b	0.9693019
144	0x3efd9a2d	0.4953169
145	0x3ee91ac7	0.45528242
146	0x3eae74df	0.3407354
147	0x3ef13c36	0.4711625
148	0x3e8c6575	0.27421156
149	0x3f98ff98	1.1953001
150	0x3e470ed0	0.19439244
151	0x3e757d9a	0.23973694
152	0x3eaa3152	0.33240753
153	0x3ecfb832	0.40570217
154	0x3ed98dfc	0.42491138
155	0x3f44e6e4	0.7691481
156	0x3e4c304f	0.19940303
157	0x3ee70f14	0.4512869
158	0x3f0c1c3c	0.5473058
159	0x3eedc3e1	0.46438506
160	0x3f401b2e	0.7504147
161	0x3ef8b209	0.4857333
162	0x3e9c6713	0.3054739
163	0x3ebac416	0.36477727
164	0x3ea0b501	0.31388095
165	0x3ea6fa70	0.32612944
166	0x3ebbb415	0.3666083
167	0x3ec56ae8	0.38558125
168	0x3ed33b3f	0.4125614
169	0x3eabb5f9	0.33537272
170	0x3f194830	0.59875774
171	0x3eb715ca	0.3575881
172	0x3ec40569	0.38285378
173	0x3f3363d7	0.7007422
174	0x3eda31e4	0.4261619
175	0x3edf53ce	0.43618625
176	0x3f5431b4	0.8288834
177	0x3e87197f	0.2638664
178	0x3f0e24f9	0.55525166
179	0x3e666182	0.22498134
180	0x3eae3494	0.3402449
181	0x3e86afe2	0.26306063
182	0x3f9548e9	1.1662875
183	0x3e92420a	0.2856601
184	0x3e9a4069	0.30127266
185	0x3f432755	0.7623189
186	0x3e54efa4	0.2079454
187	0x3e65b6e3	0.22433047
188	0x3ee99f1b	0.456292
189	0x3f5ed6b2	0.8704635
190	0x3eadebad	0.3396887
191	0x3f118e85	0.5685809
192	0x3ee0d15f	0.43909737
193	0x3ece16d7	0.402518
194	0x3e9845d8	0.29740787
195	0x3f1dcc91	0.6164027
196	0x3f22a305	0.6353
197	0x3f7edeee	0.99558914
198	0x3f2048db	0.6261117
199	0x3f15e602	0.5855409
200	0x3ea49756	0.3214671
201	0x3e8fac63	0.28061208
202	0x3edf45b6	0.43607873
203	0x3f23df8f	0.64013
204	0x3e8ddf7c	0.27709568
205	0x3e96f761	0.2948561
206	0x3e8d8770	0.27642393
207	0x3f065f3b	0.5248906
208	0x3ef5dea3	0.4802142
209	0x3e09ca5d	0.13456102
210	0x3eabe6fe	0.3357467
211	0x3e4c9cbc	0.19981664
212	0x3eade86e	0.33966392
213	0x3ee69834	0.45037997
214	0x3f50a87c	0.81507087
215	0x3e73226c	0.237436
216	0x3f3c22df	0.7349071
217	0x3f383121	0.71949965
218	0x3f092342	0.53569424
219	0x3ef78d01	0.48349765
220	0x3e5ac659	0.21364726
221	0x3f181565	0.59407645
222	0x3e9df6a9	0.3085225
223	0x3e34e188	0.17664158
224	0x3e8b5811	0.27215627
225	0x3f0d9bdd	0.55315953
226	0x3f0b8bbc	0.5451009
227	0x3e3948cb	0.18094175
228	0x3ed6c93f	0.41950414
229	0x3e721efc	0.23644632
230	0x3e515b25	0.20444925
231	0x3f083e68	0.53220224
232	0x3eaee4d9	0.34158972
233	0x3f04683a	0.5172154
234	0x3edd9048	0.4327414
235	0x3ec35a1c	0.38154685
236	0x3f4d3c3f	0.80170053
237	0x3e7e1325	0.2481199
238	0x3ee7ca1c	0.45271385
239	0x3f50820f	0.81448454
240	0x3eca437e	0.39504617
241	0x3eb0221f	0.34401032
242	0x3e84c832	0.25933987
243	0x3e8c6dd4	0.27427542
244	0x3f19c2c9	0.60062844
245	0x3f1742ac	0.5908611
246	0x3e9eebff	0.31039426
247	0x3e995692	0.2994886
248	0x3f029408	0.5100713
249	0x3efac53c	0.48978603
250	0x3f546531	0.82966906
251	0x3e88ec35	0.26742712
252	0x3f11a9c4	0.56899667
253	0x3f2a248c	0.66462016
254	0x3e5b7f9e	0.21435401
255	0x3e5bc50b	0.21461885

fc2.weight f4 [256, 256]
0	0xbe15c2d8	-0.14625108
1	0xbe86f83e	-0.2636127
2	0x3c7a3670	0.015271768
3	0x3c89eb47	0.016835822
4	0x3ddc15fa	0.10746379
5	0x3dbcbde1	0.09215904
6	0x3da41b15	0.08012978
7	0x3e204793	0.15652303
8	0xbd974f44	-0.073881656
9	0x3e1325d9	0.14369906
10	0x3cc68e3d	0.024237746
11	0xbe26dbae	-0.16294739
12	0xbe73cc02	-0.23808292
13	0x3e64def4	0.22350675
14	0x3da4cb59	0.08046598
15	0xbd1c3bf1	-0.038143102
16	0x3ed23a3e	0.4106006
17	0x3ddfbdaf	0.10924851
18	0xbdc7b51b	-0.0975134
19	0xbd60fc45	-0.054928083
20	0x3d3f54fb	0.046711903
21	0xbd1d7fb9	-0.038451884
22	0x3e795387	0.2434827
23	0x3c5b6691	0.013391153
24	0x3e22dfad	0.15905638
25	0xbcaa035f	-0.02075356
26	0xbda51422	-0.08060481
27	0xbd20c255	-0.03924783
28	0x3e171780	0.14755058
29	0x3d92c960	0.071673155
30	0xbd81267d	-0.06306169
31	0x3e5d7d4d	0.2162983
32	0x3d8f01c3	0.06982758
33	0xbd4b1515	-0.049580652
34	0x3d02a30b	0.03189377
35	0x3e2dc79d	0.16970678
36	0xbe50a471	-0.2037523
37	0xbe54d4d3	-0.20784311
38	0x3e38abec	0.18034333
39	0xbd0f7c06	-0.035030387
40	0xbd923072	-0.071381465
41	0xbe5ac570	-0.21364379
42	0xbde80712	-0.113294736
43	0xbdb7a1db	-0.08966418
44	0xbdbc481a	-0.0919344
45	0x3dfde142	0.1239648
46	0xbe35892f	-0.17728113
47	0xbcc2a5c9	-0.023760693
48	0xbd244901	-0.040108684
49	0xbe0cd650	-0.13753629
50	0x3e6bb5a1	0.23018505
51	0x3db4a811	0.088211186
52	0x3babcd93	0.005243012
53	0x3d3f7a0b	0.04674725
54	0xbdb2af16	-0.08724801
55	0xbc97c793	-0.018527782
56	0xbd73f8e3	-0.05956353
57	0xbdaebd6d	-0.08532224
58	0xbd379669	-0.044821177
59	0x3d6afd17	0.05737027
60	0xbd54dbb9	-0.051967356
61	0xbe564870	-0.2092607
62	0x3ded8dba	0.11599298
63	0xbdf591ae	-0.11990677
64	0x3e07b51c	0.13252681
65	0xbb87996d	-0.004138163
66	0xbcc792fe	-0.024362084
67	0xbe5ce830	-0.21572948
68	0x3d2178a9	0.03942171
69	0xbe3d2bbe	-0.18473718
70	0x3deffd5b	0.117182456
71	0xbbdb602e	-0.006694815
72	0x3dab9706	0.08378415
73	0xbdbbed8b	-0.09176167
74	0x3dfea52a	0.12433846
75	0xbc63837b	-0.013886328
76	0x3e56690e	0.20938513
77	0x3da8a8fd	0.08235357
78	0xbe1159c8	-0.14194405
79	0x3e5cd92f	0.21567224
80	0xbb717f3d	-0.0036849522
81	0xbc98215b	-0.018570593
82	0x3d221682	0.039572246
83	0xbd03f30c	-0.03221421
84	0x3d0d17ca	0.034446515
85	0xbccccea4	-0.025000878
86	0x3d5ee2a6	0.054415368
87	0x3e12c888	0.14334309
88	0x3e8f4e22	0.27989298
89	0xbbfef614	-0.0077807996
90	0x3d3bbc5a	0.045833923
91	0x3e2eb124	0.17059761
92	0x3ca65b00	0.020307064
93	0x3e09e83a	0.13467494
94	0xbcc17766	-0.023616504
95	0xbc954c11	-0.018224748
96	0x3daf6ab7	0.08565276
97	0xbe56b4c2	-0.20967391
98	0x3e18421a	0.14868966
99	0x3d92b504	0.07163432
100	0x3cc3e964	0.023915
101	0xbd7cb9aa	-0.0617005
102	0x3e382c68	0.1798569
103	0xbd812a02	-0.063068405
104	0x3d212e70	0.039350927
105	0xbd620f84	-0.055190578
106	0x3c164f4a	0.009174177
107	0xbcf74aa7	-0.030186964
108	0x3e2199df	0.15781353
109	0x3e130071	0.14355637
110	0x3e966108	0.29370904
111	0x3daac34e	0.08338033
112	0x3dfbbfc6	0.12292437
113	0xbd2793c6	-0.040912412
114	0xbd2fcebc	-0.042921767
115	0x3cd899f7	0.026440604
116	0x3dc5372a	0.09629662
117	0x3da481a8	0.080325425
118	0x3e442078	0.19153011
119	0x3e298cda	0.16557637
120	0xbdd77599	-0.10520477
121	0xbb58fb2d	-0.0033108697
122	0x3ca7bf6b	0.020477017
123	0x3e43bb04	0.1911431
124	0xbc2969b3	-0.010340142
125	0x3e5ed6e0	0.21761656
126	0x3e022588	0.1270963
127	0xbd8dbbfe	-0.06920622
128	0x3e21ed29	0.15813126
129	0xbc7865bc	-0.015160974
130	0x3dfed3df	0.12442755
131	0xbe9a9608	-0.3019259
132	0xbcd3bd34	-0.025847055
133	0x3e053c62	0.13011315
134	0xbcb7f55b	-0.022455862
135	0xbde9403b	-0.11389204
136	0x3e8e227c	0.27760684
137	0x3e982954	0.2971903
138	0x3e030c79	0.12797727
139	0x3c8cac19	0.017171906
140	0xbd9649cb	-0.07338294
141	0x3def8e65	0.116970815
142	0xbe160589	-0.14650549
143	0xbe7485b7	-0.23879133
144	0xbd9f3c68	-0.077751935
145	0x3db9f7c8	0.09080464
146	0xbdd4924a	-0.10379465
147	0x3d5901e9	0.052980337
148	0x3d1379b7	0.03600475
149	0x3d9b740a	0.07590492
150	0x3e7637ba	0.24044695
151	0x3e174edb	0.14776175
152	0xbdfa950d	-0.122354604
153	0x3dd4acf1	0.103845485
154	0x3d38b2ad	0.045092274
155	0xbdca04cc	-0.09864196
156	0x3d83c31f	0.06433701
157	0xbbbda651	-0.0057876487
158	0xbd6718ee	-0.05642026
159	0xbd119f23	-0.035552155
160	0x3bac9d5b	0.0052677817
161	0x3e45e55a	0.19325772
162	0xbe809a8c	-0.2511791
163	0xbeaacd80	-0.3335991
164	0xbd66d9eb	-0.056360167
165	0xbdb3b50b	-0.087747656
166	0x3de0cf75	0.10977069
167	0x3b71da0b	0.0036903645
168	0x3e3085de	0.17238566
169	0xbdc3c2cc	-0.09558639
170	0xbe13cc5d	-0.14433427
171	0x3ddc79da	0.10765429
172	0x3e0b1001	0.13580324
173	0x3bcbae8e	0.006215877
174	0x3d952d64	0.07284048
175	0xbe0810c7	-0.1328765
176	0xbcbf15f1	-0.023325892
177	0x3dc71490	0.09720719
178	0x3d98e933	0.07466354
179	0x3d9513a1	0.072791345
180	0xbde0c456	-0.10974948
181	0xbdbfaa39	-0.09358639
182	0xbe475e11	-0.19469477
183	0x3e5a64e4	0.21327549
184	0xbe0bbddb	-0.13646643
185	0xbb0e3c7d	-0.0021703534
186	0xbe02e176	-0.12781319
187	0x3e054139	0.13013162
188	0xbdba654d	-0.09101353
189	0xbe06c436	-0.13160786
190	0x3e12c2fc	0.14332193
191	0xbd087364	-0.03331317
192	0x3d3f5d6b	0.04671995
193	0x3d5c98e4	0.053856745
194	0xbe5728f1	-0.21011712
195	0xbe47b06e	-0.19500896
196	0xbdf27667	-0.1183899
197	0xbd3ed66e	-0.046591215
198	0xbd0f1ce5	-0.034939665
199	0x3dbc26d3	0.09187093
200	0xbdd9149d	-0.10599635
201	0x3e415f81	0.18884088
202	0x3d816506	0.06318097
203	0xbda40807	-0.080093436
204	0xbe74a2dd	-0.23890252
205	0x3dbbf901	0.09178353
206	0x3e35895e	0.17728183
207	0x3e3bcb84	0.18339354
208	0xbd6c09cf	-0.05762654
209	0xbddc1a13	-0.10747161
210	0x3de77e38	0.11303371
211	0x3ea35be4	0.31906044
212	0xbd382e74	-0.044966176
213	0xbd90286b	-0.07038959
214	0x3cb329f1	0.021870585
215	0x3e3ae4cf	0.18251346
216	0xbbd5a4b7	-0.0065198797
217	0xbe64c071	-0.22339036
218	0x3dcab93b	0.09898611
219	0xbd95d238	-0.07315487
220	0x3e2838fb	0.16427986
221	0x3db3eac4	0.08785012
222	0x3d6cf60f	0.057851847
223	0xbe390452	-0.18068054
224	0xbdaa0a5e	-0.08302759
225	0x3e4d65c8	0.20058358
226	0x3dedd399	0.11612625
227	0xbe0b658c	-0.13612956
228	0x3eba0d36	0.36338204
229	0xbdcfa59c	-0.10139009
230	0x3cc16597	0.023608012
231	0xbda579a2	-0.0807984
232	0x3ddc1591	0.10746301
233	0xbe37eb04	-0.17960745
234	0x3dd1ee04	0.10250476
235	0xbdef0e69	-0.116726704
236	0xbd2d7e2a	-0.042356648
237	0x3d8429d1	0.06453288
238	0x3e40fe0e	0.18846914
239	0xbd52629b	-0.05136357
240	0x3e695b0c	0.22788638
241	0xbdf4ccea	-0.11953147
242	0xbd2835f7	-0.04106709
243	0x3daabbb1	0.083365805
244	0x3ed84d03	0.42246255
245	0xbe4453b8	-0.19172561
246	0xbd148362	-0.03625811
247	0xbdf82bdc	-0.121177405
248	0x3ddb8e70	0.10720527
249	0x3e53c8c9	0.20682062
250	0x3e1d50af	0.1536281
251	0x3c57baaa	0.013167063
252	0xbd3de4a5	-0.04636063
253	0xbca76767	-0.020435048
254	0xbe419f69	-0.18908466
255	0x3dde84d5	0.108651794
